model.pth (torch, 240431 bytes, 8 tensors)

weight f4 [64, 784]
0	0xbceb88cc	-0.028751753
1	0x3cd081da	0.025452543
2	0x3d08dfe9	0.033416662
3	0xbc7abfb8	-0.015304498
4	0xbd010d1e	-0.03150665
5	0xbc2877dc	-0.010282483
6	0xbc6d17e6	-0.01447103
7	0xbcaa05f8	-0.0207548
8	0xbc161e20	-0.009162456
9	0xbcb42da3	-0.021994418
10	0x3c9e951a	0.019358207
11	0x3c8e7f54	0.0173947
12	0x3dc8543c	0.097816914
13	0x3da58a34	0.08083001
14	0xbac6d1b8	-0.0015168702
15	0xbb9d3cf9	-0.0047985283
16	0xbc7a8a34	-0.015291739
17	0x3cbb0c32	0.022832964
18	0x3ce0305a	0.027366806
19	0x3b858910	0.004075177
20	0xbb0d5e70	-0.0021571182
21	0x3c99a5e6	0.018755864
22	0x3c911cc8	0.01771392
23	0xbcb21880	-0.021740198
24	0x3ce6de7e	0.028182264
25	0xbd0555ab	-0.032552402
26	0x3ca79d16	0.020460647
27	0x3cbad85c	0.022808246
28	0xbcc7dd9c	-0.024397664
29	0xbc3541ce	-0.011063052
30	0x3cc07b42	0.023496274
31	0x3c9481be	0.018128272
32	0x3d2d391d	0.042290796
33	0x3e42637b	0.18983261
34	0x3e9b8ca4	0.30380738
35	0x3eb098c9	0.34491566
36	0x3e18bdb6	0.14916119
37	0x3e42120b	0.18952195
38	0x3e4d00d3	0.20019846
39	0x3e9c205c	0.30493438
40	0x3ea48121	0.32129768
41	0x3eaf2880	0.34210587
42	0x3e5de1b4	0.2166813
43	0x3f222e96	0.63352334
44	0x3efd1559	0.4943035
45	0x3ec4b159	0.38416556
46	0x3ec9f8a8	0.39447522
47	0x3ea972e7	0.33095476
48	0x3e6372b5	0.22211726
49	0x3dd2ef02	0.10299493
50	0x3e0c6431	0.13710095
51	0x3e0f0c56	0.1396955
52	0x3cab1b9a	0.020887185
53	0xbc9b67d3	-0.018970406
54	0xbd064eb8	-0.032789916
55	0xbc9883d0	-0.01861754
56	0xbcbb9fe3	-0.022903388
57	0xbc916900	-0.017750263
58	0x3cf6573d	0.030070895
59	0x3d8fb9ee	0.07017885
60	0x3e59546e	0.21223614
61	0x3eb3be60	0.35106182
62	0x3e93be28	0.28856015
63	0x3ee5e4c2	0.4490109
64	0x3e680f2c	0.22662038
65	0x3d4740c3	0.048645746
66	0x3e7f02e0	0.2490344
67	0x3f010433	0.5039703
68	0x3efc4475	0.4927098
69	0x3ecc90cb	0.39954218
70	0x3eb8ef48	0.36120057
71	0x3ec61428	0.38687253
72	0x3ea39a46	0.3195364
73	0x3ea49dd7	0.32151672
74	0x3e47af50	0.1950047
75	0x3e02323a	0.12714472
76	0x3df88c25	0.121361054
77	0x3e11b6c5	0.14229877
78	0x3db07c69	0.08617479
79	0x3dce512d	0.10074077
80	0x3d9063a0	0.07050252
81	0x3d0c6e9d	0.034285177
82	0xbb88d310	-0.0041755512
83	0x3c08e960	0.008356422
84	0xbbcb6ef8	-0.006208297
85	0x3b980710	0.004639514
86	0x3d6e3fd0	0.058166325
87	0x3da12308	0.0786801
88	0x3dcf6f3d	0.10128639
89	0xbc087657	-0.008328996
90	0x3dfdfe1c	0.12401983
91	0x3e9042c6	0.28175944
92	0x3e21500e	0.15753195
93	0x3e5b53bb	0.2141866
94	0x3e50f7c3	0.20407014
95	0x3e4a3e93	0.19750433
96	0x3daa389e	0.0831158
97	0x3e7990c9	0.24371637
98	0x3e6d18f3	0.23154049
99	0x3ec93bfa	0.3930357
100	0x3eb0956e	0.34489006
101	0x3e228134	0.158696
102	0x3e20a198	0.15686643
103	0x3d868bb8	0.06569618
104	0xbe013065	-0.12616117
105	0xbc9b956f	-0.018992154
106	0xbdc20d3e	-0.09475182
107	0xbdd32d93	-0.10311427
108	0xbe2291a7	-0.15875874
109	0xbc668e52	-0.014072018
110	0xbc3d6048	-0.0115586
111	0x3c286c74	0.0102797635
112	0x3c3e28b8	0.011606388
113	0x3b061865	0.0020461318
114	0xbcf66050	-0.030075222
115	0x3cfe197f	0.031018017
116	0xbdf48dbf	-0.119410984
117	0xbd6ba00d	-0.057525683
118	0x3d62f289	0.05540708
119	0x3d0ab0d8	0.033860058
120	0x3d970798	0.07374495
121	0x3e30d6d7	0.17269455
122	0x3d5651e1	0.05232418
123	0x3a91ae41	0.0011114554
124	0x393622f6	0.00017369897
125	0x3db9bd02	0.090692535
126	0x3e5a8a8e	0.21341917
127	0x3e3829c0	0.17984676
128	0x3e6bac99	0.2301506
129	0x3e8b1f38	0.27172256
130	0x3dcd8ddc	0.10036823
131	0x3dae514a	0.085115984
132	0x3dbc68ed	0.091997005
133	0x3e7bb93a	0.24582377
134	0x3e005b1b	0.12534754
135	0xbdf56a66	-0.119831845
136	0xbea09d31	-0.31369928
137	0xbe551d8e	-0.20812055
138	0x3d40e73c	0.047095522
139	0x3c79ef10	0.015254751
140	0xbce5c9de	-0.02805036
141	0x3cc8e9d6	0.024525564
142	0xbe024772	-0.12722567
143	0xbe5bcd43	-0.2146502
144	0xbe8b026c	-0.27150285
145	0xbe272d6e	-0.16325924
146	0xbda71a1b	-0.08159276
147	0xbdff707e	-0.12472628
148	0x3ce548de	0.027988847
149	0x3c05374c	0.00813086
150	0x3e284469	0.16432346
151	0x3e72bd6d	0.23705073
152	0x3dfdc908	0.12391859
153	0x3c71aed4	0.014751155
154	0x3dc2b61e	0.09507392
155	0x3d8c1e46	0.06841712
156	0xbb74ec1d	-0.003737218
157	0x3e599824	0.21249443
158	0x3e6f56d2	0.23372963
159	0x3df643a3	0.120246194
160	0x3bac20c0	0.0052529275
161	0x3d7fbde9	0.06243697
162	0x3c3d9259	0.0115705365
163	0xbdde8861	-0.10865856
164	0xbe89cc2f	-0.26913592
165	0xbe2f5324	-0.1712156
166	0x3c4720cf	0.012153818
167	0x3d3824d9	0.044957016
168	0x3c913914	0.017727412
169	0x3b931c72	0.004489475
170	0x3db0a1c8	0.08624607
171	0xbe8b50c2	-0.2721005
172	0xbe841b0a	-0.2580188
173	0xbcf3141f	-0.02967268
174	0xbdeb5c3a	-0.114922
175	0xbd07415e	-0.033021323
176	0x3c520467	0.012818432
177	0xbdc2d8f4	-0.09514037
178	0x3db98790	0.090590596
179	0x3e9b3d54	0.30320227
180	0x3e32a7e6	0.1744686
181	0x3e0579ba	0.13034716
182	0x3e0ed439	0.13948144
183	0xbc06e27c	-0.008232709
184	0xbd818d65	-0.06325797
185	0xbda65e80	-0.08123493
186	0xbc013f95	-0.007888694
187	0xbb94019a	-0.0045167925
188	0xbe36b621	-0.17842914
189	0xbe9160cf	-0.28394172
190	0xbe290bd6	-0.16508421
191	0xbd24bfc2	-0.040221937
192	0xbe5419ee	-0.20713016
193	0xbd843a3e	-0.06456421
194	0x3e36bdba	0.17845812
195	0x3cb593b2	0.022165153
196	0xbc8ed241	-0.017434241
197	0x3d08dec5	0.033415575
198	0x3e4dd6cf	0.20101474
199	0xbe4a0e79	-0.19732083
200	0xbe976c59	-0.2957485
201	0xbc4dcfe8	-0.012561776
202	0xbe007bd4	-0.12547237
203	0xbddc5b33	-0.10759582
204	0xbd1c8f64	-0.038222685
205	0x3cd24113	0.025665795
206	0x3e8b6e15	0.27232423
207	0x3ea71071	0.3262973
208	0x3e616cbb	0.22014134
209	0x3daf22a7	0.08551531
210	0x3cbb1232	0.022835825
211	0xbdb3c0f7	-0.087770395
212	0xbe93ceea	-0.288688
213	0xbeb8ba52	-0.3607965
214	0xbe9820b8	-0.29712462
215	0xbe4532cb	-0.19257657
216	0xbe934746	-0.28765315
217	0xbedeba00	-0.43501282
218	0xbebbd2ce	-0.3668427
219	0xbe5488bc	-0.20755285
220	0x3ac3dae7	0.0014942557
221	0x3d6b66db	0.057471137
222	0x3e7c8ec6	0.24663839
223	0xbd83745b	-0.064186774
224	0x3ce9ed60	0.028555572
225	0x3d227416	0.03966149
226	0x3e6b4dae	0.22978851
227	0xbcb1c307	-0.021699442
228	0xbe363c33	-0.17796402
229	0x3d6a57ee	0.057212763
230	0xbd5e5f63	-0.054290187
231	0xbe0ca34b	-0.13734166
232	0x3dddce1e	0.10830329
233	0x3e4571b8	0.19281662
234	0x3e561093	0.2090476
235	0x3e9de627	0.30839655
236	0x3d30ff62	0.043212302
237	0xbe5dcbe6	-0.21659812
238	0xbe874760	-0.26421642
239	0xbe4999fd	-0.19687648
240	0xbecc27ea	-0.39874202
241	0xbf01edee	-0.50753677
242	0xbeee49e0	-0.46540737
243	0xbef51514	-0.47867644
244	0xbea4fd78	-0.3222463
245	0xbed150f0	-0.40882063
246	0xbf056dff	-0.52120966
247	0xbec1fa0f	-0.37886092
248	0xbe300475	-0.171892
249	0xbe73c3f5	-0.2380522
250	0xbe0d8307	-0.13819514
251	0xbdbad5df	-0.09122824
252	0xbc2b4fd7	-0.010456047
253	0x3db5a4ed	0.08869348
254	0x3df46f79	0.11935324
255	0x3dc27bc0	0.0949626

bias f4 [64]
0	0x3db6fd81	0.08935071
1	0xbd2aff75	-0.04174753
2	0xbcfa649f	-0.030565558
3	0x3c954cdb	0.018225124
4	0xbb81ad53	-0.0039574294
5	0xbda60a1c	-0.08107397
6	0x3dc6c88f	0.09706222
7	0x3e5c3c3c	0.21507353
8	0xbeafcc4d	-0.34335557
9	0x3e090240	0.13379765
10	0xbe43391b	-0.19064753
11	0xbe2cd159	-0.16876735
12	0xbc05e74d	-0.008172822
13	0xbd759f3e	-0.05996632
14	0x3e7190e3	0.23590426
15	0xbe2cd9fa	-0.16880026
16	0xbc81e1d0	-0.015854746
17	0x3b61685e	0.0034394483
18	0xbc4bb0fc	-0.012432333
19	0x3ce4841a	0.027895022
20	0xbd389a24	-0.045068875
21	0x3e09b8b5	0.13449366
22	0x3d561efe	0.05227565
23	0xbdd164be	-0.10224293
24	0xbe287f07	-0.16454707
25	0x3b8b8a2c	0.0042584147
26	0x3e76993d	0.24081893
27	0xbdf45d0b	-0.11931809
28	0x3e2ce359	0.16883601
29	0x3d2d6b83	0.04233886
30	0xbd9c7f6d	-0.07641492
31	0x3c7c52ab	0.015400569
32	0x3e8041b5	0.2505013
33	0xbcf6aed8	-0.030112669
34	0x3e978109	0.29590634
35	0x3bab5ad1	0.005229332
36	0xbe550c2b	-0.20805423
37	0x3d68ace2	0.0568055
38	0xbdcabc32	-0.09899177
39	0xbd752858	-0.059852928
40	0x3e835237	0.25648662
41	0x3d9e0005	0.077148475
42	0x3e23eb71	0.16007783
43	0xbcc13edb	-0.023589542
44	0x3d6e14e8	0.058125407
45	0xbd2d8eb5	-0.042372424
46	0x3d26d16b	0.04072706
47	0xbd86a50e	-0.065744504
48	0x3d4b1dee	0.04958909
49	0xbcca710b	-0.024712106
50	0xbe0c0c60	-0.13676596
51	0x3d90be83	0.07067587
52	0x3e941907	0.28925344
53	0xbdc1a28d	-0.09454832
54	0xbd957b23	-0.07298877
55	0x3ca39b54	0.019971527
56	0xbd78858f	-0.060674246
57	0xbd0ac2b5	-0.033877093
58	0x3db18d85	0.08669571
59	0xbded6238	-0.11590999
60	0xbd62f782	-0.055411823
61	0xbe0d911f	-0.1382489
62	0x3d91fa3f	0.07127809
63	0x3d576178	0.052583188

weight f4 [64, 64]
0	0xbeb9a4da	-0.36258584
1	0xbdec136e	-0.115271434
2	0xbdbd9778	-0.09257406
3	0x3d88e6d8	0.06684655
4	0x3e3a9a34	0.18222886
5	0x3d988a6b	0.07448276
6	0xbde691b6	-0.11258261
7	0x3de91885	0.1138163
8	0xbd158ec7	-0.036513116
9	0xbdf3abe8	-0.11898023
10	0x3d8d9e0f	0.06914913
11	0x3eed238f	0.46316192
12	0x3e03d63e	0.12874696
13	0xbe253617	-0.16133915
14	0x3e1c2799	0.1524948
15	0x3e5259c0	0.2054205
16	0x3cc16a5c	0.023610286
17	0x3de03c69	0.10949022
18	0xbde21e3f	-0.11040925
19	0xbe473a4a	-0.1945583
20	0x3dd90c9a	0.10598107
21	0xbe40f8f0	-0.18844962
22	0xbe1559af	-0.14584993
23	0xbb9dd9ca	-0.0048172222
24	0x3e1b66f3	0.15175991
25	0xbf13d7b5	-0.5775102
26	0xbed368ec	-0.41290987
27	0xbded0ce9	-0.11574728
28	0xbd7365a9	-0.059423123
29	0x3da642f5	0.0811824
30	0x3e75806e	0.23974773
31	0x3dc10c8c	0.09426221
32	0xbd5d83a3	-0.054080617
33	0x3ed95e5a	0.42454797
34	0xbe16c987	-0.14725314
35	0xbdc8d806	-0.09806828
36	0x3ea19d99	0.3156555
37	0xbe7dcd53	-0.24785356
38	0x3ad15540	0.0015970841
39	0x3c7b2c5e	0.015330402
40	0xbd2bc356	-0.041934334
41	0x3e965333	0.2936035
42	0xbe72af09	-0.23699583
43	0x3da0ec26	0.07857542
44	0xbe1116ce	-0.14168856
45	0x3e42538f	0.18977188
46	0xbe81f9ac	-0.25385797
47	0x3d50405d	0.05084263
48	0xbce9a472	-0.028520796
49	0x3dac8422	0.0842364
50	0x3ddbc065	0.10730056
51	0xbe83f733	-0.25774536
52	0xbf04351b	-0.5164353
53	0x3dc2b514	0.09507194
54	0x3be62081	0.0070229177
55	0xbca44ed9	-0.020057129
56	0xbd75dd41	-0.060025457
57	0xbdeb6b6c	-0.114950985
58	0xbe3fc764	-0.18728405
59	0x3c2bbb56	0.010481676
60	0x3e556355	0.20838673
61	0x3eacd825	0.33758655
62	0x3d9a1d3f	0.075251095
63	0x3d9d93ef	0.07694232
64	0x3e004275	0.12525351
65	0x3c0e0472	0.008668052
66	0x3c4a8c70	0.0123625845
67	0xbccad762	-0.024760906
68	0x3c406759	0.01174339
69	0x3d0d9ac9	0.034571443
70	0xbdf8f750	-0.12156546
71	0x3eb54376	0.3540303
72	0xbca9e680	-0.020739794
73	0x3ec5fdf5	0.38670316
74	0x3ea529b8	0.3225839
75	0xbed2fcfa	-0.4120863
76	0xbd108a57	-0.03528818
77	0xbe151c2e	-0.14561531
78	0xbe5992f0	-0.21247458
79	0xbe882050	-0.26587152
80	0x3d6ca857	0.05777773
81	0xbdd16176	-0.10223667
82	0xbe0369c0	-0.12833309
83	0xbe907ed1	-0.28221753
84	0xbdc5239d	-0.09625933
85	0x3df880e7	0.12133961
86	0xbe0dca13	-0.13846616
87	0xbe05c76c	-0.13064355
88	0xbded15bd	-0.11576412
89	0xbebafa3b	-0.36519036
90	0x3e3f7aaf	0.18699144
91	0x3f11b80d	0.56921464
92	0xbe87e238	-0.2653978
93	0xbdf75b99	-0.12078018
94	0x3e25fb7a	0.16209212
95	0x3dfd906e	0.123810634
96	0x3ce6d94a	0.028179783
97	0x3e6dd7a7	0.23226796
98	0x3e759ad3	0.23984842
99	0xbe0762a8	-0.13221228
100	0xbc9c5584	-0.019083746
101	0x3d7c9bb8	0.061671942
102	0x3e33186b	0.17489783
103	0xbe098c83	-0.13432507
104	0x3e2d70eb	0.16937606
105	0x3db45a8d	0.08806334
106	0x3c08c2fe	0.008347271
107	0x3d4aee1c	0.049543485
108	0xbe407911	-0.18796183
109	0xbecb3c86	-0.39694613
110	0x3f35882c	0.70910907
111	0xbe7c6d5f	-0.24651097
112	0xbd74f0bd	-0.0597999
113	0x3cdd9145	0.027046809
114	0xbec1cb97	-0.3785064
115	0x3e971869	0.2951081
116	0xbe6cadd7	-0.2311319
117	0xbcdb7cb1	-0.026792856
118	0xbde38de9	-0.111110516
119	0x3d8b9079	0.06814665
120	0xbddbd895	-0.10734669
121	0xbda3a40b	-0.07990273
122	0xbe486c62	-0.19572595
123	0x3cb46bbf	0.022024034
124	0xbc27c7c9	-0.010240504
125	0x3d8d1812	0.06889357
126	0xbe13d527	-0.1443678
127	0xbeec8eb8	-0.46202636
128	0x3e8ad65d	0.2711667
129	0xbc90b5fd	-0.017664904
130	0xbdd857a0	-0.10563588
131	0xbd233695	-0.039846975
132	0x3decc4bf	0.11560964
133	0x3e21ec76	0.15812859
134	0xbdee80e8	-0.11645681
135	0x3e4e8a1d	0.20169874
136	0xbe8715ab	-0.2638372
137	0x3dd4ef45	0.103971995
138	0x3ce4e05b	0.027939012
139	0xbe84f307	-0.25966665
140	0x3e2ba473	0.16761951
141	0xbeaa6bdb	-0.33285412
142	0xbe1b3295	-0.15156014
143	0xbe2d1468	-0.16902316
144	0xbddf1ce2	-0.10894181
145	0xbdd1539b	-0.102210246
146	0x3d15b46f	0.036549028
147	0xbe7ab1cd	-0.24481888
148	0xbd8d4f4c	-0.0689989
149	0x3ca4afa8	0.02010329
150	0xbd20c90b	-0.03925423
151	0xbe20019b	-0.15625612
152	0xbdb2b457	-0.08725803
153	0xbea40529	-0.32035187
154	0xbcc0a50e	-0.023516204
155	0x3c690db1	0.014224456
156	0xbeb44d43	-0.35215196
157	0xbe4aabf9	-0.19792165
158	0xbd8c1b86	-0.06841187
159	0x3e688b7e	0.22709462
160	0x3e91f097	0.28503868
161	0x3d19db77	0.037562814
162	0x3e9a14ec	0.30094087
163	0xbe7fc42d	-0.24977179
164	0x3bb8aa8b	0.0056355647
165	0xbe31983a	-0.17343226
166	0x3dd6bcff	0.10485267
167	0xbe3ed8ba	-0.18637362
168	0x3d91167e	0.07084368
169	0xbd901973	-0.07036104
170	0xbe205f3e	-0.15661332
171	0x3d3c1e17	0.045927133
172	0x3e30e5f4	0.1727522
173	0xbebca158	-0.36841846
174	0x3e89e090	0.2692914
175	0x3c8741aa	0.016510803
176	0xbe9732b1	-0.29530862
177	0x3cfa60f3	0.030563807
178	0xbec76feb	-0.38952574
179	0x3eaf16cd	0.34197083
180	0xbe3634fe	-0.17793652
181	0x3e3fcf74	0.18731481
182	0xbcf96203	-0.030442243
183	0x3e64a247	0.22327529
184	0x3d1c7a6d	0.03820269
185	0xbab901d0	-0.001411492
186	0x3df6df35	0.12054292
187	0xbc969d81	-0.01838565
188	0x3ddc4e8f	0.10757171
189	0xbcc18305	-0.023622045
190	0x3db59a2b	0.08867296
191	0xbe1acde2	-0.151176
192	0xbe79bdfc	-0.2438888
193	0x3d858efd	0.065214135
194	0xbdb9289a	-0.09040947
195	0xbe00878e	-0.1255171
196	0x3ea235b1	0.31681588
197	0x3d163b33	0.03667755
198	0x3e54cb2c	0.20780629
199	0x3c9f2ffe	0.019432064
200	0xbb9b6cb0	-0.004743181
201	0xbd12e8f9	-0.03586671
202	0x3d73041d	0.059330095
203	0xbe8cb3c9	-0.27480915
204	0x3e1c62a2	0.15272
205	0xbe647c9d	-0.22313161
206	0x3e42bd41	0.19017507
207	0xbeb9fe71	-0.36326936
208	0x3e957095	0.29187456
209	0x3d03580e	0.032066397
210	0xbde62d9e	-0.112391695
211	0xbf198aa2	-0.5997716
212	0xbdf09e57	-0.11748951
213	0x3eb763ee	0.35818428
214	0x3df0c90a	0.11757095
215	0x3d1db5bd	0.038503397
216	0x3cfe711f	0.0310598
217	0xbb4183a3	-0.0029527924
218	0xbda480a4	-0.08032349
219	0xbd259c76	-0.040432416
220	0xbe0fe5d4	-0.14052516
221	0xbdd5d900	-0.1044178
222	0xbc5933ae	-0.01325695
223	0xbbec6e1e	-0.0072152754
224	0x3e683dbd	0.22679801
225	0x3cacdcf3	0.02110145
226	0x3d3682d7	0.044558372
227	0xbea6426c	-0.3247255
228	0xbde6a37f	-0.11261653
229	0x3c225191	0.009907142
230	0xbc18c13d	-0.009323415
231	0x3e0ccbd0	0.13749623
232	0xbd144ed1	-0.036207978
233	0xbda99557	-0.082804374
234	0x3e2150ab	0.15753429
235	0x3b7fc75e	0.0039028744
236	0xbd54103c	-0.051773295
237	0xbe3efc23	-0.1865087
238	0x3ecdff02	0.40233618
239	0xbe541b44	-0.20713526
240	0xbe60802a	-0.2192389
241	0xb91c2683	-0.00014891666
242	0xbe5507f9	-0.20803823
243	0x3c7bd200	0.015369892
244	0x3e0997ab	0.13436763
245	0xbc267c91	-0.010161535
246	0x3e2f59f5	0.1712416
247	0x3c5ff290	0.013668671
248	0xbbc822af	-0.00610765
249	0x3c86c541	0.01645148
250	0xbc9b69a3	-0.01897127
251	0xbbe6d65d	-0.007044597
252	0xbdc22cfb	-0.094812356
253	0x3c23de2f	0.010001703
254	0x3e0799a0	0.13242197
255	0xbe4f65e0	-0.20253706

bias f4 [64]
0	0xbad1eca4	-0.0016015959
1	0xbd968b40	-0.073507786
2	0x3da02afb	0.07820698
3	0xbd0ccbc0	-0.034374
4	0x3b84c1a3	0.0040514036
5	0x3c9e66cc	0.019336127
6	0x3d20dde2	0.039274104
7	0xbd796606	-0.060888313
8	0x3e833b2b	0.2563108
9	0xbcbfee70	-0.023429126
10	0xbdf20efb	-0.118192635
11	0xbdf4566e	-0.11930548
12	0xbd0646e3	-0.032782447
13	0xbdedb072	-0.1160592
14	0x3d5fc4c5	0.054631013
15	0x3e97ed1e	0.29673094
16	0xbe8abc4f	-0.27096793
17	0x3de75073	0.11294641
18	0x3d8a132b	0.06741937
19	0xbdb30358	-0.08740872
20	0x3e8b6aad	0.27229825
21	0xbdfa5362	-0.12222935
22	0xbe08d3b8	-0.13362014
23	0x3e11348a	0.14180198
24	0xbd91c0c9	-0.07116849
25	0x3dceeff8	0.10104364
26	0xbdead868	-0.114670575
27	0xbe22a9ed	-0.15885134
28	0x3cf50f62	0.029914562
29	0x3ea4b02f	0.32165667
30	0x3d6acc68	0.057323843
31	0x3d8cefa3	0.068816446
32	0xbdba61da	-0.09100695
33	0x3e177c99	0.14793624
34	0x3c0fd6c9	0.008779236
35	0x3e151b8a	0.14561287
36	0x3e592061	0.21203758
37	0xbdb6cde3	-0.089259885
38	0xbc579ef3	-0.013160455
39	0x3d8d804f	0.069092385
40	0x3d5e339f	0.05424845
41	0xbc2620ed	-0.010139686
42	0xbdefdf8b	-0.11712559
43	0x3d56b617	0.05241975
44	0xbe14dc4f	-0.14537166
45	0x3e111ea9	0.14171852
46	0x3da26ae6	0.079305455
47	0x3d0714d8	0.032978863
48	0xbd4ebd2f	-0.05047339
49	0xbe10b738	-0.14132392
50	0x3d61b66c	0.05510561
51	0x3e6c8736	0.23098454
52	0x3dda1470	0.106484294
53	0x3b9c69e5	0.004773366
54	0x3e88b96c	0.26703966
55	0x3e689d10	0.22716165
56	0x3e3b236e	0.18275234
57	0x3d563caf	0.052303966
58	0x3de8a6cc	0.11359939
59	0x3dc1822c	0.094486564
60	0xbe775184	-0.2415219
61	0x3e026dcd	0.12737198
62	0xbe1e911f	-0.15485047
63	0x3da73d20	0.081659555

weight f4 [64, 64]
0	0xbcbf869e	-0.02337962
1	0xbe7b2da5	-0.24529131
2	0xbea0d3e6	-0.31411666
3	0xbcd82709	-0.0263858
4	0xbdf49699	-0.11942787
5	0x3d89a4a4	0.06720856
6	0x3cc10197	0.023560328
7	0x3e888d05	0.2667009
8	0xbe4b3fb6	-0.19848523
9	0xbe7a5953	-0.24448137
10	0xbdc2ef74	-0.09518328
11	0xbda0aefe	-0.07845877
12	0xbd020ec9	-0.03175238
13	0x3e7547ed	0.23953219
14	0x3e35120e	0.17682669
15	0xbecbeb9f	-0.39828202
16	0xbd5ea68c	-0.05435805
17	0xbeadfecd	-0.3398346
18	0x3eb4bbd1	0.35299543
19	0x3e9cce40	0.30626106
20	0xbcd007e8	-0.025394395
21	0x3e82f741	0.25579265
22	0xbdc11093	-0.094269894
23	0x3efe334b	0.49648508
24	0x3c16b5f4	0.009198654
25	0xbeab87b8	-0.33501983
26	0x3d301a08	0.042993575
27	0xbcdcdcb7	-0.026960714
28	0x3db5d837	0.0887913
29	0x3d308dc7	0.04310396
30	0xbdc46f6f	-0.09591567
31	0xbe9a4eab	-0.30138144
32	0x3d31d187	0.04341271
33	0x3e33d753	0.17562608
34	0x3de029e8	0.10945493
35	0xbd8957ef	-0.06706225
36	0xbe9babc0	-0.30404472
37	0xbc096dcd	-0.008387995
38	0x3ec0d562	0.37662798
39	0xbe853d61	-0.2602339
40	0x3bff0b00	0.0077832937
41	0xbea2dfc1	-0.31811336
42	0x3d859479	0.065224595
43	0xbe052e8c	-0.13006037
44	0x3ddc8ecb	0.10769423
45	0x3cb1eefa	0.021720398
46	0x3dbac8e3	0.09120347
47	0xbe7d8f90	-0.24761796
48	0xbd095c6f	-0.033535417
49	0x3dc40d0b	0.095728
50	0x3c32db7a	0.010916585
51	0x3e66446c	0.22487038
52	0xbd679a0c	-0.056543395
53	0x3ec709a1	0.38874534
54	0x3e45b8e3	0.1930881
55	0x3dc1cadd	0.09462521
56	0x3e537037	0.20648275
57	0xbe82ec5a	-0.25570947
58	0x3df9aca6	0.12191133
59	0xbdc25840	-0.094894886
60	0x3ecda7fe	0.4016723
61	0x3cc09fe3	0.02351374
62	0x3da10e0a	0.07864006
63	0x3e3c4e9b	0.1838936
64	0x3ebc40cc	0.36768186
65	0x3e01ed1b	0.12688105
66	0x3c56e297	0.013115547
67	0xbc930bf4	-0.017950036
68	0xbd80fd1e	-0.06298278
69	0x3eb29419	0.34878615
70	0xbd5bbac1	-0.0536449
71	0x3bc533a6	0.00601812
72	0xbe987f1e	-0.29784483
73	0xbccbb56a	-0.024866778
74	0xbc87d522	-0.016581122
75	0xbec664df	-0.38748834
76	0xbe233e26	-0.15941676
77	0x3e6d7bcc	0.23191756
78	0x3de552e8	0.11197454
79	0xbe6c87ea	-0.23098722
80	0xbd8e9a9e	-0.06963085
81	0xbd71c731	-0.059027854
82	0xbd0f85fc	-0.035039887
83	0x3d7e9f51	0.062163655
84	0x3e1ea2ac	0.15491742
85	0xbd2714fc	-0.040791497
86	0x3d67b06c	0.056564733
87	0xbe328d6e	-0.17436764
88	0x3ce69214	0.028145827
89	0x3dc70065	0.09716872
90	0x3e1b4b2d	0.15165396
91	0x3c90cf97	0.017677112
92	0xbd86f1cb	-0.06589087
93	0x3c8c1a0b	0.017102262
94	0x3e8018c5	0.25018898
95	0x3d5c5dc3	0.053800356
96	0x3ef85366	0.48501128
97	0x3e0b7e22	0.13622335
98	0xbd34b294	-0.044115618
99	0xbdc77a6e	-0.097401485
100	0x3dc205fa	0.09473796
101	0x3eeba58d	0.46024743
102	0x3e559ada	0.20859852
103	0xbe9d579c	-0.30730903
104	0x3c83034e	0.015992787
105	0xbdcf72f9	-0.10129351
106	0xbd4aacdf	-0.04948127
107	0x3b45b552	0.003016789
108	0x3db099df	0.086230986
109	0x3e68a572	0.22719362
110	0xbe898324	-0.26857865
111	0x3d07d86f	0.03316539
112	0x3ea77cb1	0.3271232
113	0x3e8a8c41	0.2706013
114	0xbe1bbd1d	-0.1520886
115	0xbd9af135	-0.07565538
116	0x3e1d156c	0.15340203
117	0xbe7da92c	-0.24771565
118	0x3e93fbef	0.28903148
119	0xbea3a8fa	-0.31964856
120	0xbd4d169b	-0.050070386
121	0x3dc6b881	0.0970316
122	0xbdcbfb2c	-0.099600166
123	0xbe0516bc	-0.12996954
124	0x3d631de0	0.055448413
125	0xbc7fa6eb	-0.015603761
126	0xbe034062	-0.12817529
127	0x3e80327b	0.25038514
128	0xbe1598c5	-0.14609058
129	0x3e56823e	0.20948121
130	0xbd9674f5	-0.073465265
131	0x3c4701d9	0.012146437
132	0x3c7b6caf	0.015345736
133	0x3cbe00e3	0.023193782
134	0xbdb1c7fc	-0.08680722
135	0x3e8a0346	0.26955622
136	0x3dd852d7	0.105626754
137	0xbe992452	-0.29910523
138	0xbe0b18b6	-0.13583645
139	0x3ea38762	0.31939226
140	0xbca249fe	-0.019810673
141	0xbdce4a58	-0.10072774
142	0x3ca2cfb4	0.019874431
143	0x3e24b996	0.1608642
144	0xbd270f57	-0.040786114
145	0x3d2c347f	0.04204225
146	0x3e57ad36	0.21062168
147	0x3ec8b65b	0.39201626
148	0x3d36834d	0.044558812
149	0xbe321fd6	-0.17394957
150	0x3e7d0b20	0.24711275
151	0xbec43898	-0.38324428
152	0xbe4fbae2	-0.20286134
153	0xbd36d3ca	-0.04463557
154	0x3dfc40e5	0.12317065
155	0xbdf1bb3f	-0.118032925
156	0x3c1e6d4b	0.009669612
157	0x3d1d6f2d	0.038436104
158	0xbd1410f7	-0.03614899
159	0x3d20cf1f	0.039260026
160	0xbd0c8916	-0.034310423
161	0x3e14f4d3	0.14546518
162	0x3e52e711	0.20595957
163	0xbd968e35	-0.073513426
164	0xbdadb4f7	-0.08481782
165	0x3e86626c	0.26246965
166	0xbec9cc59	-0.39413717
167	0xbec85119	-0.39124373
168	0xbd4e097a	-0.050302006
169	0xbca0d060	-0.019630611
170	0xbd07c4a0	-0.0331465
171	0xbe41be23	-0.18920188
172	0x3bda4e49	0.0066621643
173	0xbdd372d4	-0.10324636
174	0x3dff33b7	0.12461036
175	0xbdb0ff2b	-0.086424194
176	0x3e65608d	0.22400112
177	0x3e4204e9	0.18947186
178	0xbde428e0	-0.11140609
179	0x3ca84ac3	0.020543462
180	0x3bcd3f34	0.006263638
181	0xbc400ae2	-0.011721345
182	0x3d1ead40	0.038739443
183	0x3e761b21	0.24033786
184	0xbd3dc1aa	-0.04632727
185	0xbde370f4	-0.111055285
186	0x3e8425dd	0.25810137
187	0xbdbf005c	-0.093262404
188	0xbe26560f	-0.16243766
189	0x3d8ff01b	0.07028218
190	0xbc8d3fb6	-0.017242294
191	0xbe18a1ec	-0.14905518
192	0x3d7269ac	0.059182808
193	0x3e621f39	0.22082223
194	0x3d85c6ab	0.065320335
195	0xbda40a3b	-0.08009764
196	0x3e88d2f9	0.2672346
197	0x3c87c49b	0.016573241
198	0x3de84660	0.11341548
199	0xbdd0caf4	-0.1019496
200	0x3d95b29c	0.07309458
201	0xbd0096b1	-0.03139371
202	0xbe7d2c00	-0.24723816
203	0x3eb541e4	0.35401833
204	0x3e881469	0.26578072
205	0x3d2896d5	0.04115947
206	0x3dba1d0e	0.09087573
207	0xbe5fd586	-0.21858796
208	0xbd98048c	-0.07422742
209	0xbe90310b	-0.28162417
210	0x3d53476c	0.051581785
211	0x3ebc6f0d	0.36803475
212	0xbdb21f91	-0.08697427
213	0x3cc8a601	0.02449322
214	0x3e09f7b9	0.13473405
215	0x3da30b48	0.07961136
216	0xbeca4aa4	-0.3951007
217	0xbdc502f4	-0.09619704
218	0xbe2dbcc8	-0.16966546
219	0x3e6d53c2	0.23176482
220	0xbd4b70fc	-0.049668297
221	0xbe45efeb	-0.19329803
222	0xbcccb761	-0.024989786
223	0x3e096e75	0.13421042
224	0xbe09556c	-0.13411492
225	0x3dc49a40	0.09599733
226	0x3e308bb1	0.17240788
227	0xbcae95bc	-0.021311633
228	0xbc2c822a	-0.01052908
229	0xbc4a1e17	-0.012336276
230	0x3d2ff47f	0.04295778
231	0x3ebffb4b	0.3749641
232	0x3d7d7f8c	0.061889216
233	0xbdaf462e	-0.085583076
234	0xbdc342bc	-0.09534213
235	0x3e969d91	0.2941709
236	0xbb8e5644	-0.0043437798
237	0xbe2e6c23	-0.17033438
238	0xbe214cda	-0.15751973
239	0xbe4620f2	-0.19348505
240	0xbe41e1f4	-0.1893385
241	0xbeb2b367	-0.34902498
242	0x3e51d015	0.20489533
243	0xbe7fc6eb	-0.24978225
244	0xbe16a6df	-0.14712094
245	0x3e6f343d	0.23359771
246	0xbe14dece	-0.14538118
247	0xbe83fb9c	-0.257779
248	0xbd166763	-0.03671969
249	0xbe0db3d2	-0.13838127
250	0x3d6efaf5	0.0583448
251	0xbda7af47	-0.081877284
252	0x3d277130	0.04087943
253	0x3e550fe7	0.20806848
254	0x3da9e2eb	0.08295234
255	0xbd511e17	-0.051054087

bias f4 [64]
0	0x3de6a8e6	0.112626836
1	0x3d9a9ee6	0.07549839
2	0xbd963546	-0.0733438
3	0xbdd91797	-0.106002025
4	0xbd9a1bb7	-0.075248174
5	0x3eb7b90f	0.35883376
6	0xbd9a66cc	-0.07539138
7	0xbd6ef5b5	-0.058339793
8	0xbe7eb923	-0.24875312
9	0x3eb054ec	0.3443979
10	0x3e5ce3cb	0.21571271
11	0xbe1b6893	-0.1517661
12	0x3e60bdbf	0.21947382
13	0x3e3df1c9	0.18549265
14	0xbe56dd26	-0.20982799
15	0x3e1922bb	0.14954655
16	0xbd0d8d0b	-0.034558337
17	0xbccc4a2c	-0.024937712
18	0xbe194547	-0.14967833
19	0xbdb69d95	-0.08916775
20	0xbdaf3c45	-0.085564174
21	0xbe0757bf	-0.13217066
22	0xbce18c5f	-0.027532754
23	0x3e89414a	0.26807624
24	0xbdc28cc3	-0.094995044
25	0x3e65d38d	0.22443981
26	0x3d5e7139	0.054307196
27	0xbe6cfcdf	-0.23143338
28	0xbe780c7d	-0.24223514
29	0x3d51152a	0.051045574
30	0x3cce2856	0.025165718
31	0xbc885d0b	-0.016645929
32	0xbe11beed	-0.14232989
33	0xbd19e1fb	-0.037569027
34	0xbe63f59a	-0.22261658
35	0x3e4a0c59	0.19731273
36	0xbe042c7c	-0.12907594
37	0xbda93f58	-0.08264035
38	0xbe37ba34	-0.17942125
39	0xbceb795f	-0.028744398
40	0xbd3ba6c6	-0.045813344
41	0x3e8ea5ef	0.27860972
42	0x3d364b98	0.044505686
43	0xbdea4d53	-0.1144053
44	0x3e6cde4d	0.23131676
45	0x3e76bd48	0.24095643
46	0x3ebfc821	0.37457374
47	0xbdbd4104	-0.09240916
48	0xbd846ab1	-0.06465662
49	0x3dff1d65	0.124567784
50	0xbe3ae5a5	-0.18251665
51	0xbe2c8784	-0.1684857
52	0xbe173317	-0.14765583
53	0xbd2ad19d	-0.04170381
54	0x3e46fe2d	0.19432898
55	0x3e278f10	0.16363168
56	0x3e4dd39a	0.20100251
57	0x3e4e6b65	0.20158155
58	0xbe64867f	-0.22316931
59	0x3e1b58df	0.1517062
60	0x3e85946a	0.26089793
61	0xbd11cba1	-0.035594586
62	0x3e59f5c9	0.21285166
63	0x3e8b171c	0.2716607

weight f4 [10, 64]
0	0xbebcfbbe	-0.36910814
1	0xbeaf0f12	-0.34191185
2	0xbe790080	-0.24316597
3	0x3e08760e	0.13326284
4	0xbec7df9f	-0.39037797
5	0xbd3414c0	-0.0439651
6	0xbe6a40e5	-0.22876318
7	0xbea620b9	-0.3244684
8	0xbd6daa1e	-0.058023565
9	0xbdd33ea9	-0.10314686
10	0xbeb7291f	-0.3577356
11	0xbed1efe5	-0.41003338
12	0xbecb4067	-0.39697573
13	0xbd8c8e49	-0.06863076
14	0xbe153bc5	-0.14573582
15	0x3dee8b96	0.11647718
16	0x3de25c25	0.110527314
17	0xbe752d4c	-0.2394306
18	0xbd8d3680	-0.06895161
19	0x3dc237e4	0.094833165
20	0x3e454492	0.19264439
21	0x3e79fb32	0.2441223
22	0x3dc2b74f	0.095076196
23	0xbeb1b953	-0.34711704
24	0xbe9cbed2	-0.30614334
25	0x3dd6596d	0.10466275
26	0x3e26828e	0.1626074
27	0xbf647e5c	-0.8925531
28	0xbf74cb83	-0.95623034
29	0xbf0511d3	-0.5198032
30	0xbe541049	-0.20709337
31	0xbded2baa	-0.11580594
32	0xbf27552f	-0.65364355
33	0xbe9bd555	-0.30436197
34	0xbee392f0	-0.44448042
35	0xbbd627e3	-0.0065355166
36	0xbe27729a	-0.16352311
37	0x3d1a03f2	0.03760142
38	0x3e203355	0.15644582
39	0x3d112a28	0.035440594
40	0xbea4d734	-0.32195437
41	0xbea61d49	-0.32444218
42	0xbf0aeba4	-0.5426581
43	0xbed0aa04	-0.40754712
44	0x3d9cf49d	0.07663844
45	0xbee2d079	-0.44299677
46	0xbc727d25	-0.014800345
47	0xbe368dbc	-0.17827505
48	0xbf5e192b	-0.86757153
49	0xbe36a424	-0.17836052
50	0xbe08e720	-0.13369417
51	0xbe964adc	-0.29353988
52	0xbf1f22bf	-0.62162393
53	0xbd9e9226	-0.07742719
54	0xbe4a075a	-0.19729367
55	0x3e1dfc91	0.15428378
56	0xbdf90dc9	-0.121608324
57	0xbd9c6c0a	-0.07637794
58	0xbf051cd8	-0.5199714
59	0x3d939c2d	0.072075225
60	0xbea17e52	-0.31541687
61	0xbe9431c9	-0.28944233
62	0xbf5ffe6b	-0.87497586
63	0x3c09b03c	0.008403834
64	0x3d924fdf	0.071441405
65	0x3e225f30	0.15856624
66	0xbc951343	-0.018197661
67	0x3e4e2993	0.20133047
68	0x3d927ee0	0.07153106
69	0xbee419d6	-0.4455096
70	0x3c21f5f2	0.009885298
71	0xbebaaac4	-0.3645841
72	0xbd9f1a63	-0.07768705
73	0x3e46d74d	0.19418068
74	0x3e2dd4b4	0.16975671
75	0xbea24f3f	-0.31701085
76	0x3c6e4688	0.014543183
77	0xbe813ff8	-0.25244117
78	0x3cdf3d24	0.027250834
79	0xbe830121	-0.255868
80	0x3e5b5b6c	0.21421593
81	0xbe4d3595	-0.20039971
82	0x3b4c4ce1	0.0031173753
83	0xbede3630	-0.43400717
84	0xbe97d53a	-0.29654866
85	0xbeda864e	-0.4268059
86	0xbebeebac	-0.37289178
87	0xbc9eacf5	-0.019369582
88	0xbdfcd322	-0.12344958
89	0xbeba8783	-0.36431512
90	0xbdbda565	-0.09260062
91	0x3e01d7af	0.12679933
92	0xbcbd3619	-0.023097085
93	0x3d9bfe55	0.07616869
94	0x3dcf0035	0.10107461
95	0x3d0d0e34	0.034437373
96	0x3e3e85e1	0.18605758
97	0x3e0653fa	0.13117972
98	0x3d0441cb	0.032289308
99	0xbe859f68	-0.2609818
100	0x3c175d6e	0.009238584
101	0x3d99a43d	0.07502029
102	0xbea57d21	-0.32322028
103	0xbe669d62	-0.22520974
104	0x3ea2e1e9	0.3181298
105	0xbe9a985c	-0.30194366
106	0xbe5f3054	-0.2179578
107	0x3dbb2bf3	0.09139242
108	0xbf28fb2d	-0.66008264
109	0xbec7091e	-0.38874143
110	0xbef22eb2	-0.4730125
111	0xbebb1a6e	-0.36543602
112	0xbe554fe1	-0.20831253
113	0xbf18a28f	-0.59623045
114	0xbef760b4	-0.48315966
115	0x3e0619ae	0.13095734
116	0xbee31e7d	-0.44359198
117	0x3e886229	0.2663739
118	0xbda74408	-0.08167273
119	0x3c23a8c9	0.009988972
120	0x3e2ebd7b	0.17064469
121	0xbed99444	-0.4249593
122	0xbed49609	-0.41520718
123	0xbe9661e4	-0.2937156
124	0xbe00888b	-0.12552087
125	0xbeb2174a	-0.34783393
126	0x3dd88ee5	0.1057413
127	0x3ddac030	0.10681188
128	0xbec29b4f	-0.38009116
129	0x3d0193e5	0.031635184
130	0xbf2007d7	-0.6251196
131	0xbcc7b7dd	-0.024379665
132	0x3e4351e4	0.19074208
133	0xbdba43b4	-0.090949446
134	0xbea57ad8	-0.32320285
135	0xbe17ed9a	-0.14836732
136	0xbe57fcd2	-0.21092537
137	0x3d1a2cf7	0.037640538
138	0xbd09c641	-0.033636335
139	0x3d89f023	0.067352556
140	0xbe088fe9	-0.13336147
141	0x3cd7020f	0.026246099
142	0xbe11fd05	-0.14256676
143	0xbe163447	-0.1466838
144	0xbe5cd353	-0.21564989
145	0x3e0805dd	0.13283487
146	0xbdb2cf24	-0.08730915
147	0x3e192f82	0.14959529
148	0x3e0893c2	0.13337615
149	0xbdfc3c71	-0.12316216
150	0x3d9beda3	0.07613685
151	0x3e2db057	0.169618
152	0xbed7bde9	-0.42137077
153	0xbd0fefd7	-0.03514084
154	0x3db52768	0.08845407
155	0xbe6ad5af	-0.22933076
156	0xbe9c89b7	-0.30573818
157	0xbe8c33ff	-0.2738342
158	0xbc4e1bb6	-0.012579849
159	0xbec50a6e	-0.3848452
160	0xbdc5209a	-0.09625359
161	0xbbb0509d	-0.0053807036
162	0xbe90214d	-0.28150406
163	0x3d2646ed	0.040594984
164	0x3e36bcbe	0.17845437
165	0x3e348206	0.17627725
166	0xbecfcfe1	-0.40588287
167	0xbe957d21	-0.29197028
168	0x3e01da25	0.12680872
169	0xbedb7a19	-0.4286659
170	0xbda04484	-0.07825568
171	0xbed1e235	-0.40992895
172	0xbd909b76	-0.07060902
173	0xbe3c0df8	-0.18364704
174	0xbdf1ac00	-0.118003845
175	0xbeb83418	-0.35977244
176	0xbed92a7a	-0.4241522
177	0x3d64c1a2	0.055848725
178	0xbe0635b0	-0.13106418
179	0xbeb72e38	-0.3577745
180	0xbed0783e	-0.40716738
181	0xbe93e8c7	-0.28888533
182	0xbe62185c	-0.22079605
183	0x3cff53ae	0.031167831
184	0x3de133cf	0.1099621
185	0x3c1f5b08	0.009726293
186	0x3ce41325	0.02784116
187	0xbd6b16b0	-0.057394683
188	0xbe850ff0	-0.25988722
189	0x3dda33af	0.10654389
190	0x3e24d835	0.16098101
191	0xbe7f2524	-0.24916512
192	0xbe82c580	-0.25541306
193	0x3df77ba1	0.12084127
194	0x3d3f0aef	0.046641286
195	0x3d062a8a	0.032755412
196	0x3e23790d	0.15964146
197	0xbe167017	-0.14691196
198	0xbddd9f72	-0.108214274
199	0xbd831e17	-0.064022236
200	0xbee448cb	-0.44586787
201	0x3d07cb62	0.033152945
202	0xbc3738e6	-0.011182999
203	0xbe69984d	-0.22812004
204	0xbdb5a356	-0.088690445
205	0x3df6fe83	0.12060263
206	0xbf0296ea	-0.51011527
207	0x3c92d16b	0.017922124
208	0x3de75369	0.11295206
209	0xbead6012	-0.33862358
210	0xbd711ade	-0.058863513
211	0x3e123b88	0.14280522
212	0xbe4f3f3e	-0.20238969
213	0xbeb4e372	-0.35329777
214	0xbdf71d63	-0.12066152
215	0xbe203a04	-0.15647131
216	0xbf0bf161	-0.5466519
217	0x3e568dfc	0.209526
218	0xbe50d8e7	-0.20395242
219	0xbeff51eb	-0.49867186
220	0xbf488d6c	-0.7834079
221	0x3da72e52	0.08163132
222	0xbe797a1a	-0.24362984
223	0xbe09a7ea	-0.1344296
224	0xbee14076	-0.43994492
225	0x3d3838f2	0.044976182
226	0x3e0fa35e	0.14027163
227	0xbeacf67d	-0.33781806
228	0x3e1ba9c8	0.15201485
229	0x3e2b81ae	0.16748688
230	0xbce6a69c	-0.028155617
231	0xbebd0d16	-0.36924046
232	0xbe81aee3	-0.2532874
233	0x3db02b4f	0.086020105
234	0x3dfde7e1	0.12397743
235	0xbe995c10	-0.2995305
236	0xbb8fc374	-0.0043873135
237	0x3e2a9379	0.16657819
238	0xbddfa0d6	-0.10919349
239	0xbe95d009	-0.2926028
240	0x3e620e2b	0.22075717
241	0xbe5fe604	-0.21865088
242	0xbf2ab0d2	-0.66676056
243	0xbd25a13c	-0.04043697
244	0xbf8bb555	-1.0914713
245	0xbec12cd5	-0.37729517
246	0x3dbc3b0e	0.09190951
247	0xbe7e61dc	-0.24842018
248	0x3be84472	0.0070882374
249	0x3c62bacd	0.013838482
250	0xbec16d99	-0.3777893
251	0x3e042ffc	0.1290893
252	0xbdc3f066	-0.09567337
253	0xbcf1ea15	-0.029530564
254	0xbe2d40f3	-0.16919307
255	0xbec7236d	-0.38894215

bias f4 [10]
0	0xbe5615c1	-0.20906736
1	0xbd9c4b24	-0.076315194
2	0x3dbd4429	0.09241516
3	0x3d16bb1b	0.03679953
4	0x3c14b8e6	0.009077286
5	0x3e1e6253	0.15467195
6	0xbe7f7a7d	-0.2494907
7	0xbd11365e	-0.03545224
8	0x3ec1aed2	0.3782869
9	0x3cbb27cf	0.02284613
